model.pt (torch, 5748 bytes, 5 tensors)

weight f4 [16, 28]
-0.113472536 0.1085341 0.09789607 -0.008148386 0.17165865 -0.05198102 -0.05589301 0.11848601
0.023992414 -0.04775794 -0.15826344 0.11310024 -0.026518896 0.04929513 -0.1429899 0.0854843
0.012903354 -0.14770429 0.1323876 -0.036952294 -0.041698452 -0.08981823 -0.1571663 -0.0860196
0.04153882 0.010000956 -0.11628832 0.077740595 -0.149148 0.087175965 -0.16700335 -0.1719544
-0.16353858 0.05481217 -0.119648635 -0.07764333 -0.09474309 0.1293572 0.045453038 -0.08690713
-0.058685903 0.12525322 0.016399812 -0.008497293 0.094362035 0.18188365 0.067456305 0.0818299
0.17944805 -0.07259681 -0.053327806 0.16955268 0.18479392 -0.15585913 0.06860394 0.053692047
0.055022288 -0.08809068 0.1599144 -0.1006244 -0.17080133 -0.15816174 0.12293941 0.16508704
0.17540291 -0.12274299 -0.05878385 0.084935375 0.060987554 -0.11372741 0.17872088 0.123008244
-0.16280806 0.15300931 0.11952299 0.04749082 -0.11626056 0.039942656 0.14691614 0.05345597
-0.14776409 -0.18711886 0.12601411 0.10361897 0.091670826 -0.053517565 0.037898786 -0.053040016
-0.16423784 0.043365166 -0.13892564 0.14551778 -0.010015963 -0.04178744 0.07192051 0.043860883
-0.10795589 -0.021343278 -0.00046681974 -0.16894102 -0.008511533 -0.05035222 0.013191595 0.114817776
0.14089966 -0.1613097 -0.050561033 0.015485958 0.15451792 -0.06615329 0.038649365 -0.052622084
0.14809076 0.09640974 0.073158525 -0.11298893 0.14295274 0.040909838 0.17884798 0.022897389
-0.017454095 -0.1585816 -0.15991484 -0.15522894 0.10370544 -0.07286257 -0.09310486 -0.1940218
-0.19050965 0.08238815 0.113738656 -0.10776532 -0.09636728 0.118046165 0.05551525 0.022836735
0.09096561 0.14281175 0.0027814952 0.0011111351 -0.032604575 -0.15641695 -0.1916443 0.046617314
-0.11762832 -0.0034773827 0.07659546 0.0027526552 0.18184528 -0.06796424 -0.15845174 -0.16505568
0.1324953 0.11556362 0.13707697 0.020175716 0.018259773 -0.05848491 0.120510675 -0.03403022
-0.025357982 0.08878409 -0.03420925 0.101631805 -0.1841503 -0.15588944 0.16001537 -0.14737292
0.12032119 0.12427974 0.0183026 -0.11377823 -0.068616964 0.06406952 0.08989435 0.1603527
-0.030630156 -0.13045543 0.06444202 0.1121087 -0.084198885 0.022204826 -0.079744294 -0.10183693
0.07413812 -0.14998697 -0.020048272 -0.052247223 0.011857145 -0.06376029 0.083148785 -0.10252428
-0.10826695 0.15805857 0.17475083 -0.15584657 -0.13112043 -0.07398334 0.19726758 -0.024564244
-0.032922924 0.12063328 -0.06641118 0.087697916 -0.0047402335 0.02088739 -0.08124579 -0.10873598
-0.1493991 -0.015182196 0.16745082 -0.06839365 0.16203357 0.18068188 0.043599162 0.09231225
-0.15323164 0.081131585 0.07968479 -0.031087438 -0.07906014 -0.041523706 0.05496453 0.012245814
0.15924914 0.10208672 -0.12136432 -0.16020374 0.086715534 0.08690356 -0.18406153 -0.083476745
0.008868745 0.17309695 0.15116744 -0.060642455 0.19132693 -0.12612507 0.16082256 0.16300857
0.097770825 0.01556435 0.1274536 -0.16410138 -0.09867173 -0.1033455 -0.17134966 -0.15718426
-0.07480464 0.13804515 -0.08842654 -0.12298958 0.08590354 -0.12006642 -0.16129841 -0.03305922
00000000: 4a64 e8bd 2047 de3d bc7d c83d cf80 05bc
00000010: 49c7 2f3e 0dea 54bd 12f0 64bd cba8 f23d
00000020: bd8b c43c d49d 43bd d00f 22be 19a1 e73d
00000030: 283e d9bc b1e9 493d f26b 12be 6512 af3d
00000040: 9768 533c cb3f 17be 9d90 073e 4a5b 17bd
00000050: ffcb 2abd 9ff2 b7bd 34f0 20be 0b2b b0bd
00000060: 9c24 2a3d 0ddb 233c 9228 eebd 7636 9f3d
00000070: 41ba 18be 5089 b23d ed02 2bbe d014 30be
00000080: a876 27be ba82 603d 580a f5bd 7703 9fbd
00000090: aa08 c2bd 3776 043e f72c 3a3d 5efc b1bd
000000a0: a160 70bd 6142 003e e658 863c 3b38 0bbc
000000b0: e240 c13d b53f 3a3e 8826 8a3d 6f96 a73d
000000c0: 3bc1 373e a3ad 94bd 426e 5abd 389f 2d3e
000000d0: 9e3a 3d3e 8999 1fbe 3980 8c3d 31ec 5b3d
000000e0: 0d5f 613d e368 b4bd 9ac0 233e 2a14 cebd
000000f0: 8be6 2ebe 27f5 21be a8c7 fb3d 940c 293e
00000100: d29c 333e ad60 fbbd 56c7 70bd 99f2 ad3d
00000110: 16ce 793d ebe9 e8bd 9b02 373e bfeb fb3d
00000120: 28b7 26be 79ae 1c3e 78c8 f43d bc85 423d
00000130: 041a eebd e99a 233d 2f71 163e a6f4 5a3d
00000140: 784f 17be 169c 3fbe d809 013e 2f36 d43d
00000150: eabd bb3d 3c35 5bbd c23b 1b3d 7d40 59bd
00000160: f72d 28be ac9f 313d 8642 0ebe 9d02 153e
00000170: fe19 24bc 4f29 2bbd 0f4b 933d 78a7 333d
00000180: fa17 ddbd 19d8 aebc 7cbf f4b9 e0fe 2cbe
00000190: f573 0bbc 213e 4ebd 8f21 583c 9525 eb3d
000001a0: 0048 103e 5f2e 25be 1619 4fbd d1b8 7d3c
000001b0: f239 1e3e 607b 87bd cc4e 1e3d 418a 57bd
000001c0: 1ba5 173e 7872 c53d 23d4 953d bd66 e7bd
000001d0: 3462 123e 1391 273d ed23 373e 4e93 bb3c
000001e0: e4fb 8ebc 3763 22be b7c0 23be 56f4 1ebe
000001f0: 8563 d43d f938 95bd c3ad bebd a7ad 46be
00000200: f614 43be 1ebb a83d d0ef e83d 10b4 dcbd
00000210: 355c c5bd 30c2 f13d f563 633d 1b14 bb3c
00000220: 2e4c ba3d 3e3d 123e bf49 363b 82a3 913a
00000230: 608c 05bd c42b 20be 673e 44be ccf1 3e3d
00000240: 1ee7 f0bd cde4 63bb 15de 9c3d e465 343b
00000250: a635 3a3e d630 8bbd 2c41 22be 5b04 29be
00000260: d9ac 073e 9fac ec3d e85d 0c3e 8b47 a53c
00000270: 8595 953c df8d 6fbd 4dce f63d 4663 0bbd
00000280: 8bbb cfbc 6fd4 b53d 001f 0cbd 5624 d03d
00000290: e591 3cbe 7ba1 1fbe 12db 233e ede8 16be
000002a0: f56a f63d 6086 fe3d 56ef 953c 9004 e9bd
000002b0: 0d87 8cbd e136 833d 871a b83d 8033 243e
000002c0: 18ec fabc 1c96 05be 2efa 833d 3f99 e53d
000002d0: 7770 acbd e5e6 b53c fa50 a3bd e18f d0bd
000002e0: bad5 973d 2f96 19be 463c a4bc 2f01 56bd
000002f0: 7844 423c c194 82bd e949 aa3d 40f8 d1bd
00000300: 10bb ddbd 1bda 213e e2f1 323e 3e96 1fbe
00000310: 6f44 06be 9484 97bd 8300 4a3e f43a c9bc
00000320: 30da 06bd 950e f73d 9602 88bd f79a b33d
00000330: f653 9bbb 081c ab3c 3164 a6bd f8b0 debd
00000340: 14fc 18be bfbe 78bc 3a78 2b3e f811 8cbd
00000350: 21ec 253e ac04 393e 0995 323d 340e bd3d
00000360: c1e8 1cbe 5128 a63d c731 a33d 15ab febc
00000370: 48ea a1bd c314 2abd 7d22 613d aba2 483c
00000380: 3512 233e d812 d13d db8d f8bd 730c 24be
00000390: ea97 b13d 7efa b13d a07a 3cbe dbf5 aabd
000003a0: 364e 113c 5440 313e a3cb 1a3e 3964 78bd
000003b0: 35eb 433e ee26 01be abae 243e b8eb 263e
000003c0: 123c c83d 9e01 7f3c 3283 023e 310a 28be
000003d0: 6714 cabd cea6 d3bd 4976 2fbe e9f4 20be
000003e0: 2d33 99bd b55b 0d3e f918 b5bd f6e1 fbbd
000003f0: 32ee af3d 62e5 f5bd 692b 25be 1b69 07bd

bias f4 [16]
-0.06115957 -0.0036239107 -0.13078101 -0.10005707 -0.049636837 0.16197519 0.14693177 0.1346835
0.10136011 -0.13073084 -0.17169805 -0.19065337 0.19271074 -0.018177455 -0.14245902 -0.074016035
00000000: 7582 7abd 227f 6dbb 75eb 05be b9ea ccbd
00000010: ff4f 4bbd d3dc 253e 4875 163e 79ea 093e
00000020: e495 cf3d 4ede 05be 9dd1 2fbe a33a 43be
00000030: f755 453e e3e8 94bc c7e0 11be b895 97bd

weight f4 [4, 16]
0.04723816 -0.23750135 0.15714999 -0.13264127 -0.09713284 -0.2217606 0.13909031 -0.17736056
-0.011846993 0.026855718 0.23961727 -0.19483928 -0.06833848 -0.048477914 -0.21016638 -0.12391664
-0.07462583 -0.098678984 -0.2106785 0.13907762 0.25064284 -0.06819088 -0.22214718 -0.17841054
-0.20395039 0.2378441 0.032033015 0.1883382 -0.16580966 -0.115116075 0.21741574 0.057832506
0.12234255 -0.019669136 0.019695636 -0.16000278 0.07797475 0.18233277 0.25484565 -0.2320847
0.062867366 -0.05566737 0.18993108 -0.08976579 0.05976291 0.22466692 -0.14770006 -0.14326374
0.014758273 0.17137803 0.18213123 -0.009367619 0.14186317 -0.09296904 -0.06223822 0.16873834
0.034364752 -0.10402256 0.2469938 -0.14173466 0.0048920596 0.19580956 0.11503631 -0.0033843003
00000000: cd7c 413d 8e33 73be edeb 203e 1dd3 07be
00000010: 95ed c6bd 3615 63be b16d 0e3e 029e 35be
00000020: e419 42bc 8600 dc3c 3b5e 753e f383 47be
00000030: 0cf5 8bbd c790 46bd db35 57be 02c8 fdbd
00000040: 6dd5 98bd 3518 cabd 1bbc 57be 5d6a 0e3e
00000050: 4254 803e a9a7 8bbd 8d7a 63be 41b1 36be
00000060: 5fd8 50be 678d 733e 0d35 033d bbdb 403e
00000070: 02ca 29be fac1 ebbd 3ba2 5e3e c7e1 6c3d
00000080: bb8e fa3d 2b21 a1bc be58 a13c c5d7 23be
00000090: 3ab1 9f3d 71b5 3a3e 217b 823e 9da7 6dbe
000000a0: 9bc0 803d 7803 64bd 4b7d 423e 20d7 b7bd
000000b0: f4c9 743d 160f 663e af3e 17be bbb3 12be
000000c0: afcc 713c b97d 2f3e 9c80 3a3e a47a 19bc
000000d0: 9444 113e 8d66 bebd 81ed 7ebd bec9 2c3e
000000e0: 0ec2 0c3d c809 d5bd f1eb 7c3e e422 11be
000000f0: 924d a03b 4d82 483e 2898 eb3d 23cb 5dbb

bias f4 [4]
0.103187986 -0.20804179 0.13308983 -0.0027190328
00000000: 3954 d33d e808 55be b348 083e cd31 32bb

weight f4 [1, 4]
-0.273498 -0.024411311 -0.4892621 -0.23826773
00000000: ee07 8cbe 3bfa c7bc 9080 fabe 75fc 73be
